dataprogram(final)/mdd_model.pth (torch, 75369 bytes, 8 tensors)

network.0.weight f4 [64, 8]
0.22561425 0.3085927 -0.26654774 -0.27864882 -0.0618848 0.22608376 0.3348546 0.22049521
0.23355463 -0.10943505 0.22917157 0.24584569 0.3610733 0.0258407 -0.34206715 0.31032044
-0.23612173 -0.32358912 0.17658788 -0.060582783 -0.0023906254 -0.10682501 0.31779987 -0.33476296
0.22928116 0.32798904 -0.21781096 0.30283436 -0.25845632 0.169716 -0.09878349 0.08173142
-0.22252883 -0.21966836 0.15919393 0.06138057 0.23781489 0.14654596 -0.23856477 0.28653315
0.10439482 0.34525645 0.18626359 0.30429628 0.1141606 -0.18083113 0.16131464 0.33417812
0.23905268 0.40831476 -0.29759118 0.26484382 -0.21890263 0.38431847 -0.26267922 0.17282817
-0.1438056 -0.023489753 0.19610944 0.21429382 -0.08741084 0.11285782 0.17150642 -0.30655947
0.17633483 0.2894956 -0.14513339 0.009186122 -0.009894704 -0.18009344 -0.13677827 -0.3219399
0.05056736 0.24898246 0.20676862 0.12734532 0.25607014 -0.08488336 -0.23824546 -0.12848294
-0.12736127 0.013922687 0.114769295 0.17945462 -0.11350374 0.05295183 0.12755056 -0.2844862
-0.27815726 -0.30926645 0.24469899 0.22878654 0.011644956 -0.06558197 0.37574312 0.21059394
-0.31096125 -0.052855313 -0.21990682 0.22014195 0.23472911 0.03114593 -0.26515138 0.2189618
0.30678514 0.048374712 -0.06585613 0.22932574 0.28784755 -0.06648016 0.12796563 0.31775266
0.093569025 0.14474438 0.32800052 -0.06873174 0.2524392 0.09087721 0.008148498 0.013304771
0.08673091 0.012411922 -0.19597614 0.018321091 0.40030318 -0.049437016 -0.24368021 -0.19510324
0.21278034 0.111927986 0.13452984 -0.063982874 -0.27833438 -0.020149946 0.35495117 0.0039049387
-0.109426856 0.15382762 0.092309766 -0.057940666 -0.32457358 -0.023785247 -0.23230425 0.33708692
0.14870319 0.08108303 0.12854066 -0.2375769 0.005284339 0.22895835 0.27971807 0.24322084
-0.3062608 -0.10600087 0.15271741 -0.18576093 0.13184887 -0.12825537 0.19452788 0.2876613
-0.18418543 -0.0074567795 0.004698068 -0.022983432 -0.04748243 -0.24442175 0.27344322 0.12943667
0.034142435 0.1999254 0.108698785 -0.32660002 0.31852236 0.3005004 -0.21538034 0.22590138
-0.12865934 -0.18805708 -0.113051794 -0.11766563 0.042220954 0.25456977 -0.19606523 -0.12065825
0.04593256 0.29615048 -0.3223684 -0.11482626 -0.17917143 -0.005486518 -0.33237353 -0.20142004
-0.1461173 -0.22494464 0.1280742 -0.09896919 -0.04110992 -0.20826165 -0.13628192 -0.17711826
-0.0086565465 -0.24247275 -0.21184038 0.31881347 0.25723743 -0.050406028 0.20268342 -0.08077979
0.21984778 -0.21844774 -0.32754755 0.273426 0.06027178 0.0837527 -0.2615134 -0.27376202
-0.23801455 -0.25407112 0.04352641 0.09774014 0.36057132 -0.05261892 -0.33781102 -0.10490093
-0.282292 -0.2005731 0.34638864 -0.20637667 -0.11532377 -0.12905905 -0.119945124 -0.17488995
0.35108244 0.29697302 0.25019124 -0.09399306 -0.21191946 -0.17841418 0.041584924 0.23075159
-0.345104 0.32736734 0.20971796 -0.31651434 -0.2906267 -0.33903545 0.26705983 -0.32914892
-0.045043677 -0.19003429 -0.25056136 -0.34577918 -0.19165592 -0.18824494 -0.018933296 0.29271176
00000000: 6c07 673e ddff 9d3e f278 88be 0fab 8ebe
00000010: eb7a 7dbd 8082 673e 1072 ab3e 7fc9 613e
00000020: f228 6f3e 7c1f e0bd f4ab 6a3e f9be 7b3e
00000030: 99de b83e e0af d33c 6d23 afbe 52e2 9e3e
00000040: e5c9 71be 79ad a5be 74d3 343e a725 78bd
00000050: 0aac 1cbb 12c7 dabd aab6 a23e 0d66 abbe
00000060: aec8 6a3e 2eee a73e d609 5fbe 1b0d 9b3e
00000070: 6354 84be 08ca 2d3e 004f cabd cd62 a73d
00000080: 99de 63be bef0 60be bc03 233e 316a 7b3d
00000090: bf85 733e 2510 163e 534a 74be 79b4 923e
000000a0: f4cc d53d 74c5 b03e e2bb 3e3e b9cc 9b3e
000000b0: 08cd e93d cc2b 39be aa2f 253e 6519 ab3e
000000c0: 3aca 743e a20e d13e df5d 98be 9c99 873e
000000d0: 0328 60be 64c5 c43e e47d 86be def9 303e
000000e0: c641 13be 956d c0bc ead0 483e d76f 5b3e
000000f0: 7404 b3bd 0022 e73d 619f 2f3e 5df5 9cbe
00000100: 1e91 343e c438 943e d99d 14be 6381 163c
00000110: 661d 22bc 6a6a 38be 9a0f 0cbe 4ed5 a4be
00000120: b81f 4f3d 42f5 7e3e 27bb 533e d066 023e
00000130: a01b 833e 54d7 adbd 9ef6 73be 0891 03be
00000140: fe6a 02be fb1b 643c 2a0c eb3d f4c2 373e
00000150: a674 e8bd 05e4 583d 9d9c 023e 2da8 91be
00000160: a16a 8ebe 2c58 9ebe 5f92 7a3e 0547 6a3e
00000170: 7cca 3e3c d74f 86bd 6761 c03e f0a5 573e
00000180: 5036 9fbe d07e 58bd 412f 61be e46c 613e
00000190: d45c 703e c025 ff3c ecc1 87be 8637 603e
000001a0: f112 9d3e 9024 463d 94df 86bd 5ed4 6a3e
000001b0: c160 933e c026 88bd 6c09 033e 7ab0 a23e
000001c0: 1ea1 bf3d df37 143e afef a73e 3ac3 8cbd
000001d0: b63f 813e d51d ba3d 4781 053c 41fc 593c
000001e0: fa9f b13d 605b 4b3c f8ad 48be 1d16 963c
000001f0: 8af4 cc3e 787e 4abd 4e87 79be 25c9 47be
00000200: 17e3 593e 803a e53d 31c2 093e 7409 83bd
00000210: d881 8ebe 8011 a5bc 29bc b53e 00ea 7f3b
00000220: 301b e0bd fd84 1d3e e70c bd3d 3153 6dbd
00000230: 822e a6be 47d9 c2bc 2ae1 6dbe a896 ac3e
00000240: a645 183e dc0e a63d 2aa0 033e 5c47 73be
00000250: 4028 ad3b 0f74 6a3e 3537 8f3e e20e 793e
00000260: 37ce 9cbe fc16 d9bd f461 1c3e 1d38 3ebe
00000270: 6403 073e 6055 03be 5132 473e 5848 933e
00000280: 1b9b 3cbe 0058 f4bb 40f2 993b c047 bcbc
00000290: f07c 42bd b249 7abe c000 8c3e 0c8b 043e
000002a0: f0d8 0b3d 3eb9 4c3e 789d de3d 1e38 a7be
000002b0: 5d15 a33e 30db 993e aa8c 5cbe b152 673e
000002c0: 46bf 03be 0992 40be b387 e7bd aefa f0bd
000002d0: e1ef 2c3d f856 823e 53c5 48be ac1b f7bd
000002e0: c823 3c3d 09a1 973e 790d a5be 082a ebbd
000002f0: b778 37be 40c8 b3bb dd2c aabe 0e41 4ebe
00000300: c69f 15be e357 66be e225 033e 5cb0 cabd
00000310: e062 28bd 8b42 55be 7d8d 0bbe 7d5e 35be
00000320: 30d4 0dbc c74a 78be afec 58be 853b a33e
00000330: a0b4 833e 8d76 4ebd 3e8c 4f3e e06f a5bd
00000340: c71f 613e c4b0 5fbe 50b4 a7be 7efe 8b3e
00000350: 8bdf 763d 8986 ab3d 16e5 85be 892a 8cbe
00000360: 16ba 73be 9c15 82be c048 323d fc2b c83d
00000370: ce9c b83e f086 57bd 91f5 acbe 4cd6 d6bd
00000380: 9488 90be 0963 4dbe da59 b13e 6854 53be
00000390: de2e ecbd 0e28 04be caa5 f5bd 5a16 33be
000003a0: 14c1 b33e d90c 983e 1119 803e 6f7f c0bd
000003b0: 6a01 59be 35b2 36be f454 2a3d 254a 6c3e
000003c0: 79b1 b0be b19c a73e 4ec0 563e 2b0e a2be
000003d0: 06cd 94be 0e96 adbe 11bc 883e 3586 a8be
000003e0: b87f 38bd 5998 42be 9449 80be f809 b1be
000003f0: 7341 44be 48c3 40be 001a 9bbc 51de 953e

network.0.bias f4 [64]
0.17684469 -0.051719654 0.3235546 0.2948234 -0.01711067 -0.3459392 -0.24852416 0.06448509
0.13610385 -0.053066324 0.21650523 0.25573823 -0.054224394 -0.24332166 0.16811356 -0.016990526
-0.111186355 0.1183725 -0.12862298 0.33443132 -0.04565616 -0.2056026 0.36550412 -0.33745214
-0.1965877 0.04989067 0.32234123 -0.1735577 -0.2531776 0.12061679 0.012376282 -0.10749535
-0.20596372 -0.0044818837 0.17517619 -0.09473394 0.30832547 0.11562557 -0.30412766 -0.0039750934
-0.21759309 0.18982242 0.08502289 -0.14945924 -0.008831531 0.23646563 0.33645356 0.002013636
-0.28661758 -0.2596455 -0.07468423 0.33171567 -0.31974325 -0.02880378 0.34229964 -0.3375793
-0.08531757 0.313158 0.1911478 -0.12121308 -0.0860132 -0.33755195 -0.066783845 -0.095876105
00000000: c616 353e fdd7 53bd f3a8 a53e 18f3 963e
00000010: ad2b 8cbc f11e b1be 1e7d 7ebe c210 843d
00000020: cf5e 0b3e 135c 59bd 8cb3 5d3e 1ff0 823e
00000030: 661a 5ebd 5029 79be f625 2c3e b72f 8bbc
00000040: acb5 e3bd 486d f23d beb5 03be 953a ab3e
00000050: f401 3bbd 7d89 52be 5b23 bb3e 87c6 acbe
00000060: 494e 49be 295a 4c3d e909 a53e 1cb9 31be
00000070: 7fa0 81be f005 f73d e4c5 4a3c 8626 dcbd
00000080: 27e8 52be c4dc 92bb 6361 333e de03 c2bd
00000090: d6dc 9d3e 19cd ec3d 9fb6 9bbe 8041 82bb
000000a0: b9d0 5ebe cf60 423e 7b20 ae3d d80b 19be
000000b0: 20b2 10bc 0c24 723e a443 ac3e 35f7 033b
000000c0: 8abf 92be 41f0 84be 0cf4 98bd a3d6 a93e
000000d0: 63b5 a3be e8f5 ebbc e641 af3e 32d7 acbe
000000e0: faba aebd 3f56 a03e 40bc 433e 903e f8bd
000000f0: b027 b0bd 9cd3 acbe f8c5 88bd b15a c4bd

network.2.weight f4 [128, 64]
-0.029828057 0.1037028 -0.074935764 0.068914115 -0.047606155 -0.09909694 0.091920465 0.09397751
-0.09905046 0.07182528 -0.045322716 -0.06724012 -0.016836077 0.06927638 -0.115086645 0.026407793
0.0097269565 0.02055876 -0.041297287 -0.01155968 -0.03709407 -0.0012778938 0.032636836 0.081181824
-0.061689243 -0.08744264 0.016049877 0.08783454 0.07291381 -0.062680915 -0.08480628 0.06526972
-0.04351811 -0.010071486 -0.08036704 -0.062164113 -0.10951726 -0.07235025 -0.069908515 0.038764387
-0.073993266 0.041727126 -0.043821827 0.010852411 0.08061263 -0.067204624 -0.065061375 0.10621469
-0.013487935 0.038271368 0.07873741 0.07739963 -0.045692906 -0.06283209 0.014721841 -0.1015811
0.07564704 -0.10995869 0.023137048 0.092825115 -0.06728315 -0.062056452 0.039973572 0.10344423
0.12998238 0.08283072 -0.07707225 0.008529625 0.032130342 -0.055483 -0.016817106 -0.08618478
-0.056525808 -0.040336348 -0.0662019 -0.13379873 -0.042593982 -0.057585787 0.10602503 0.03849444
0.035858806 -0.09218686 -0.012796269 0.044742625 0.046159487 0.12699053 0.041812837 0.1086629
-0.04249911 0.06279304 0.14726172 0.012516604 0.045133363 0.040064763 0.081085265 -0.054590665
-0.11831772 -0.09628465 -0.08099716 -0.033363067 -0.011394364 -0.06053974 -0.02747499 -0.08846358
0.012644493 -0.036438234 -0.023390276 0.10737209 -0.044616003 -0.0827452 0.084795974 0.00863172
0.049525455 0.03209704 0.033366263 -0.053913817 -0.07332264 0.057601664 -0.02723943 -0.08210339
0.1165695 -0.016753439 -0.1226931 -0.029850734 0.0027606983 0.11617416 -0.03130825 0.024384689
0.07213987 -0.03588303 0.027931236 0.11236864 0.062033866 -0.030923825 -0.11961038 0.058934458
0.033059355 -0.06655238 0.06448003 0.055377424 -0.026893664 -0.09016886 0.06626502 -0.053063046
0.05194103 0.0867342 -0.04859453 0.10761131 0.10827398 -0.03117473 0.11019948 -0.028177798
-0.0015646964 0.060711604 -0.10617659 0.052294105 0.02013734 -0.06828713 -0.0064418763 0.0270017
-0.09533019 -0.051512796 -0.020923467 0.041627176 -0.020937543 -0.08192715 0.030660747 0.053770274
-0.016913 0.02122833 0.021264592 -0.09189786 0.037630264 0.08203816 -0.051409252 -0.08252597
0.027708158 -0.018000737 0.064996354 -0.11200272 0.02009751 0.099256516 0.1412534 -0.05121897
0.09240641 0.07885891 -0.11757673 -0.044154994 0.06604004 -0.046654135 0.09947476 -0.03278938
0.09083447 -0.11578794 -0.1081042 -0.08742535 0.047352985 -0.00425902 0.04944831 -0.09828447
0.054735377 -0.053247884 0.06880504 0.009219423 -0.07323016 0.07480858 0.007733941 -0.10009986
0.006531015 0.049828082 0.041253254 -0.004295364 0.076710775 0.05252658 -0.11653867 0.080750406
-0.1042109 -0.09005885 0.045362502 -0.0159529 0.030860633 -0.038040638 -0.09737101 0.043095022
0.07884969 0.007387057 -0.03886269 0.027507812 -0.104959294 -0.057448328 -0.09348878 -0.05012749
0.08914991 -0.08201471 -0.12422693 0.124108255 0.02500692 0.124112025 -0.025055155 0.08270456
0.037756026 -0.119663835 -0.05032505 0.080212235 -0.021965533 -0.02997604 -0.090465486 0.09201808
-0.00844489 -9.487569e-05 0.03544849 0.024131045 0.004599884 -0.07597886 -0.04676585 -0.00416331
00000000: f859 f4bc 2262 d43d ec77 99bd d822 8d3d
00000010: acfe 42bd 56f3 cabd cc40 bc3d 4877 c03d
00000020: f8da cabd 2219 933d 50a4 39bd 30b5 89bd
00000030: d0eb 89bc c6e0 8d3d 8cb2 ebbd 2855 d83c
00000040: d05d 1f3c d86a a83c 5827 29bd d064 3dbc
00000050: f4ef 17bd 007f a7ba 34ae 053d a842 a63d
00000060: dcad 7cbd 2015 b3bd 087b 833c 98e2 b33d
00000070: d653 953d da5e 80bd eaae adbd 22ac 853d
00000080: 0c40 32bd e002 25bc 7a97 a4bd cc9f 7ebd
00000090: 964a e0bd 5e2c 94bd 322c 8fbd 68c7 1e3d
000000a0: c889 97bd 10ea 2a3d 847e 33bd 50ce 313c
000000b0: 3c18 a53d 94a2 89bd e63e 85bd 1687 d93d
000000c0: 80fc 5cbc 70c2 1c3d 1441 a13d b283 9e3d
000000d0: 7c28 3bbd 1cae 80bd e033 713c c009 d0bd
000000e0: d6ec 9a3d 0632 e1bd e889 bd3c 181b be3d
000000f0: c0cb 89bd e82e 7ebd 54bb 233d 92da d33d
00000100: 1a1a 053e 27a3 a93d 0ed8 9dbd d7bf 0b3c
00000110: 1b9b 033d 2442 63bd 07c4 89bc a581 b0bd
00000120: 9b87 67bd ba37 25bd dd94 87bd 8902 09be
00000130: 0777 2ebd 13df 6bbd a723 d93d 59ac 1d3d
00000140: afe0 123d 77cc bcbd 71a7 51bc 0b44 373d
00000150: bb11 3d3d ce09 023e f043 2b3d a88a de3d
00000160: 8c13 2ebd a399 803d c7cb 163e 7112 4d3c
00000170: c3dd 383d f31a 243d 0810 a63d 769a 5fbd
00000180: 9050 f2bd e330 c5bd d7e1 a5bd b6a7 08bd
00000190: 6daf 3abc 85f8 77bd 3b13 e1bc 652c b5bd
000001a0: d92a 4f3c 4240 15bd f79c bfbc e6e5 db3d
000001b0: 45bf 36bd 5176 a9bd 83a9 ad3d 0f6c 0d3c
000001c0: 34db 4a3d 3078 033d 10ab 083d bcd4 5cbd
000001d0: 2e2a 96bd b9ef 6b3d 3a25 dfbc d225 a8bd
000001e0: fdbb ee3d 823e 89bc 8546 fbbd 8789 f4bc
000001f0: d5ec 343b b8ec ed3d 143d 00bd 66c2 c73c
00000200: 11be 933d 16fa 12bd 0cd0 e43c 8821 e63d
00000210: 3917 7e3d f653 fdbc 49f6 f4bd 4265 713d
00000220: 3f69 073d 9d4c 88bd 1b0e 843d 70d3 623d
00000230: 1a50 dcbc 74aa b8bd f4b5 873d a358 59bd
00000240: 1ec0 543d b3a1 b13d 0f0b 47bd 5263 dc3d
00000250: c0be dd3d 2662 ffbc 44b0 e13d 20d5 e6bc
00000260: 8016 cdba bbac 783d 1d73 d9bd 5832 563d
00000270: 10f7 a43c 1fda 8bbd 6016 d3bb ab32 dd3c
00000280: 7a3c c3bd 15ff 52bd b167 abbc 4281 2a3d
00000290: 3685 abbc 6cc9 a7bd 3f2c fb3c 383e 5c3d
000002a0: 228d 8abc 09e7 ad3c 1533 ae3c f234 bcbd
000002b0: 3122 1a3d 9f03 a83d 8292 52bd 6003 a9bd
000002c0: 38fc e23c 4876 93bc cf1c 853d af61 e5bd
000002d0: 89a3 a43c 0047 cb3d bba4 103e fcca 51bd
000002e0: 923f bd3d c880 a13d 12cc f0bd dedb 34bd
000002f0: 0040 873d 6818 3fbd 6cb9 cb3d 284e 06bd
00000300: 6c07 ba3d 3a22 edbd bc65 ddbd 100c b3bd
00000310: 34f5 413d 408f 8bbb 508a 4a3d 5e49 c9bd
00000320: 3432 603d 741a 5abd a8e9 8c3d 100d 173c
00000330: b2f9 95bd 3e35 993d 006d fd3b 2801 cdbd
00000340: 2002 d63b 8818 4c3d 2cf9 283d 20c0 8cbb
00000350: 8a1a 9d3d 1c26 573d d4ab eebd 7860 a53d
00000360: 866c d5bd c670 b8bd 08ce 393d a8af 82bc
00000370: 70cf fc3c 80d0 1bbd 746a c7bd 6884 303d
00000380: f27b a13d 200f f23b 7c2e 1fbd 1058 e13c
00000390: e6f4 d6bd f04e 6bbd 0c77 bfbd 7c52 4dbd
000003a0: 3a94 b63d 54f7 a7bd b06a febd 782c fe3d
000003b0: 50db cc3c 722e fe3d 7840 cdbc 0261 a93d
000003c0: 10a6 1a3d 5012 f5bd a421 4ebd 5046 a43d
000003d0: 10f1 b3bc 5090 f5bc f845 b9bd fa73 bc3d
000003e0: 705c 0abc 00f8 c6b8 7032 113d 78ae c53c
000003f0: a0ba 963b ce9a 9bbd 8c8d 3fbd 606c 88bb

network.2.bias f4 [128]
-0.08635402 0.10847677 -0.09157892 -0.09788683 -0.12261808 0.03864336 0.12899022 0.030484855
-0.07189954 -0.00400915 -0.05754493 0.08477974 -0.023535669 -0.04158433 0.11803137 0.11624885
-0.059072014 0.06140032 0.12977903 0.050140083 0.03548145 0.052445408 0.096310794 0.020396631
-0.03657631 0.061206207 -0.05671186 0.051930036 0.11068812 0.016322352 -0.06921525 0.033462953
-0.008477243 0.040697765 -0.13003804 -0.092680335 -0.028391168 -0.0568057 -0.09034413 -0.046118595
-0.09675725 -0.009164579 -0.06524293 -0.0971432 0.041235022 0.06404091 0.036774706 -0.08068831
0.007343315 0.08729969 0.0426335 0.043131992 0.077126905 0.009769902 0.008541053 -0.029660126
0.068660624 0.09957665 -0.031891033 -0.040603794 -0.08716459 -0.019517964 0.09147683 0.10847531
-0.111928314 -0.041044164 0.1224778 0.12675162 -0.110803455 0.112452336 0.025424138 0.011666179
0.043628108 -0.057277307 -0.03903894 0.058435965 -0.088192746 0.033201773 -0.022663306 0.104209326
-0.026887817 -0.101468295 -0.07023027 -0.01582361 0.100202896 0.08489804 0.08396865 0.04479178
-0.059015658 -0.114231676 0.12915973 0.108063415 0.11405295 -0.066939145 0.09735193 0.03523357
0.009180966 -0.027440751 0.021918759 0.07278886 0.08397016 0.11422877 0.035384122 0.043910824
0.072960235 -0.0076619387 -0.08590761 -0.12047805 -0.04804501 0.028049637 0.050524216 -0.07159905
0.10681308 0.122543946 -0.06581394 0.064884715 -0.08402818 0.11386218 0.11318821 -0.1088182
0.10079838 0.12582362 -0.07811464 -0.056741644 -0.10823019 -0.05277963 0.028812693 0.0007118583
00000000: 60da b0bd 1229 de3d bb8d bbbd e478 c8bd
00000010: 301f fbbd 8048 1e3d 0316 043e 60bb f93c
00000020: 1140 93bd 305f 83bb 3cb4 6bbd 00a1 ad3d
00000030: e0cd c0bc 5554 2abd 6eba f13d e113 ee3d
00000040: 7ff5 71bd e77e 7b3d cbe4 043e b05f 4d3d
00000050: ff54 113d ffd0 563d 983e c53d d616 a73c
00000060: 0ad1 15bd 5cb3 7a3d b24a 68bd 97b4 543d
00000070: 74b0 e23d 74b6 853c bac0 8dbd 7310 093d
00000080: 22e4 0abc b3b2 263d b128 05be 30cf bdbd
00000090: 9894 e8bc 18ad 68bd 5806 b9bd dae6 3cbd
000000a0: aa28 c6bd 0827 16bc 169e 85bd 04f3 c6bd
000000b0: 0ee6 283d e127 833d 13a1 163d ea3f a5bd
000000c0: 31a0 f03b 2eca b23d 77a0 2e3d 2cab 303d
000000d0: b6f4 9d3d f011 203c c6ef 0b3c cbf9 f2bc
000000e0: f19d 8c3d d8ee cb3d 2ca0 02bd 2a50 26bd
000000f0: 5983 b2bd 23e4 9fbc 3458 bb3d 4e28 de3d
00000100: ac3a e5bd ed1d 28bd a4d5 fa3d 2dcb 013e
00000110: ecec e2bd 694d e63d 4846 d03c 8023 3f3c
00000120: 63b3 323d 9c9b 6abd 4ce7 1fbd 8d5a 6f3d
00000130: 669e b4bd 95fe 073d 66a8 b9bc b36b d53d
00000140: d743 dcbc 9cce cfbd e3d4 8fbd 84a0 81bc
00000150: 2d37 cd3d 06df ad3d c1f7 ab3d 9677 373d
00000160: 67ba 71bd 4cf2 e9bd 7342 043e 5a50 dd3d
00000170: 9894 e93d 6417 89bd 7360 c73d 1351 103d
00000180: c36b 163c 6dcb e0bc f88e b33c 5312 953d
00000190: 8cf8 ab3d c6f0 e93d f1ee 103d d6db 333d
000001a0: 2d6c 953d 0011 fbbb 54f0 afbd 32bd f6bd
000001b0: d8ca 44bd 5ac8 e53c 7bf2 4e3d 86a2 92bd
000001c0: d1c0 da3d 52f8 fa3d 75c9 86bd 47e2 843d
000001d0: f716 acbd 9330 e93d 38cf e73d 14dc debd
000001e0: 626f ce3d e8d7 003e 92fa 9fbd ed69 68bd
000001f0: caa7 ddbd 742f 58bd 9908 ec3c 009c 3a3a

network.4.weight f4 [64, 128]
-0.04190502 -0.047349922 0.022040566 -0.027364094 0.07840765 -0.013976556 -0.05164378 0.048317105
-0.061808802 0.04602245 -0.0303877 0.08630842 -0.005209118 0.09214838 0.039045013 -0.06235673
-0.036489546 0.108812 -0.03329788 0.031910054 0.016927414 -0.05588686 0.022800108 -0.07082815
0.08885347 0.07530338 -0.066517405 0.08157467 0.017766826 0.05122503 0.07901374 -0.06462892
-0.04768906 0.026474394 0.06392486 0.06706857 0.037602834 -0.03903144 0.08708765 0.093117364
0.025194824 -0.093122445 0.043623812 -0.0032102615 -0.04030313 -0.009764093 0.028164046 -0.014619879
0.026620647 -0.07298994 0.11219642 0.02533107 0.10961828 0.056559913 -0.006485473 -0.032045938
-0.022448124 -0.06725682 -0.10127515 -0.010985233 -0.05033959 0.13623385 0.06126638 0.09655353
-0.08156491 0.04591956 0.053780027 0.08448815 -0.07426844 0.091138996 -0.024835655 0.037262708
-0.065310106 -0.02281548 0.08091126 0.11203294 0.044750873 0.018807698 -0.029649107 -0.029363431
0.072085276 -0.030111182 0.021728627 0.05572253 -0.063982375 0.05307067 0.087060064 -0.03137157
0.08226235 -0.08025881 -0.032779776 -0.02702992 0.021817425 0.033392724 0.08407489 0.007109328
0.08146639 0.08744888 0.11401941 0.044400685 -0.06831368 -0.023381371 -0.06703811 0.038970485
0.008217025 -0.04189108 -0.0071026906 -0.08372373 -0.06598928 -0.059844397 -0.092920095 0.054409795
-0.043587357 -0.025730617 -0.062367216 -0.018922217 0.10492816 0.04544579 -0.062211975 -0.08446191
0.021631213 0.02885137 0.02353637 0.001115795 -0.008586653 0.022023402 -0.08720516 -0.014043234
-0.08174004 -0.009262643 0.0011656333 -0.0034547 0.05730597 -0.069246724 -0.04542043 0.016768606
-0.08601444 0.056976516 -0.067845404 0.034189753 -0.05209892 0.06706353 0.007646419 -0.07399397
0.018394249 0.04575991 -0.049875617 0.009119602 -0.032951232 -0.07856217 -0.03862787 -0.07103041
-0.08724257 -0.038483623 -0.009947009 0.07766354 0.07114064 0.051296677 0.047210462 0.082864374
-0.01746656 -0.0014164256 -0.03660188 -0.072872825 -0.087099284 -0.071331136 0.060407408 0.010801694
-0.04026302 0.00015776439 -0.0045799837 0.055386283 -0.06690828 0.07650243 0.014088515 0.041873507
0.059828423 0.022198746 -0.055375434 0.052628487 0.03074824 0.040350355 0.011545137 -0.015481509
0.051901374 -0.00040069222 -0.024668878 -0.07767121 -0.010367626 -0.06128909 0.042352192 -0.08388428
0.03842696 0.031791903 -0.08242334 0.012315321 0.018086478 -0.0049109557 -0.042927418 -0.031000895
-0.074563496 0.06094741 0.022037722 0.015373709 -0.09159674 -0.078856446 0.018620297 0.043212403
-0.025275737 -0.05872552 0.017128395 0.06530655 0.027801258 -0.023641644 -0.06604628 -0.060144804
-0.051195115 -0.069234155 0.027649384 0.087079965 -0.030442528 -0.011962779 -0.02040286 0.08372236
-0.01930744 0.0457534 -0.00093316863 0.06300828 -0.016108446 0.013272243 0.04748418 0.015857272
0.011785849 -0.07912366 -0.0070044114 0.0001800462 0.037996687 -0.04572274 -0.043440945 -0.07990324
0.034950167 -0.08657564 0.084724985 -0.06835151 0.078364596 -0.062307965 -0.004936107 -0.08270743
-0.040205102 -0.02152036 -0.0012471378 0.006042401 0.060786642 -0.02384004 -0.04113616 0.057520755
00000000: 99a4 2bbd fef1 41bd 6b8e b43c aa2a e0bc
00000010: 3194 a03d edfd 64bc 6e88 53bd 28e8 453d
00000020: 3a2b 7dbd 0982 3c3d a0ef f8bc 78c2 b03d
00000030: 40b1 aabb 4ab8 bc3d aaed 1f3d c569 7fbd
00000040: 1076 15bd d3d8 de3d 5c63 08bd 1eb4 023d
00000050: 5cab 8a3c 9fe9 64bd 4bc7 ba3c 590e 91bd
00000060: cff8 b53d a938 9a3d 473a 88bd 9f10 a73d
00000070: bc8b 913c 56d1 513d f5d1 a13d 2b5c 84bd
00000080: 9b55 43bd d4e0 d83c 09eb 823d 3f5b 893d
00000090: 6e05 1a3d 6edf 1fbd 035b b23d 51b4 be3d
000000a0: 6065 ce3c fbb6 bebd e2ae 323d 4063 52bb
000000b0: e514 25bd 93f9 1fbc 49b8 e63c 3888 6fbc
000000c0: 8b13 da3c c07b 95bd 3dc7 e53d 1b83 cf3c
000000d0: 8c7f e03d 5eab 673d 1784 d4bb 9a42 03bd
000000e0: 21e5 b7bc f2bd 89bd 5969 cfbd 68fb 33bc
000000f0: e330 4ebd e380 0b3e 75f2 7a3d dbbd c53d
00000100: 810b a7bd 2616 3c3d 7248 5c3d 2008 ad3d
00000110: 0d1a 98bd 15a7 ba3d 2574 cbbc c8a0 183d
00000120: 4ec1 85bd 88e7 babc cdb4 a53d 8771 e53d
00000130: b14c 373d 9a12 9a3c afe2 f2bc 948b f0bc
00000140: 72a1 933d baab f6bc 3c00 b23c 4f3d 643d
00000150: 3109 83bd a260 593d 8c4c b23d 7a7f 00bd
00000160: 2a79 a83d bb5e a4bd 1644 06bd da6d ddbc
00000170: 75ba b23c cfc6 083d 752f ac3d 5ef5 e83b
00000180: dad7 a63d 6618 b33d 0283 e93d 7edd 353d
00000190: 0be8 8bbd 4a8a bfbc 474b 89bd 849f 1f3d
000001a0: b3a0 063c fb95 2bbd b0bd e8bb 5977 abbd
000001b0: 6325 87bd 661f 75bd e44c bebd cedc 5e3d
000001c0: a888 32bd 04c9 d2bc c474 7fbd c402 9bbc
000001d0: 93e4 d63d 5d25 3a3d fcd1 7ebd 5efa acbd
000001e0: f133 b13c b559 ec3c 58cf c03c de3f 923a
000001f0: 08af 0cbc 6c6a b43c 9e98 b2bd 9815 66bc
00000200: 5267 a7bd 57c2 17bc 2ac8 983a 4068 62bb
00000210: aab9 6a3d 3ad1 8dbd c60a 3abd 515e 893c
00000220: 5728 b0bd 3560 693d 88f2 8abd 8e0a 0c3d
00000230: ad65 55bd 9b58 893d d08e fa3b 278a 97bd
00000240: 89af 963c be6e 3b3d 604a 4cbd 626a 153c
00000250: dff7 06bd 34e5 a0bd 4238 1ebd 6478 91bd
00000260: 3cac b2bd 01a1 1dbd c8f8 22bc 100e 9f3d
00000270: 2fb2 913d 771c 523d c25f 413d ccb4 a93d
00000280: 0816 8fbc 5ba7 b9ba daeb 15bd 593e 95bd
00000290: 1c61 b2bd 0f16 92bd c26d 773d 97f9 303c
000002a0: d6ea 24bd 8e6d 2539 b013 96bb badc 623d
000002b0: 3507 89bd 4ead 9c3d 84d3 663c 8e83 2b3d
000002c0: a60e 753d 25da b53c 5ad1 62bd f890 573d
000002d0: bce3 fb3c 6a46 253d d027 3d3c 28a6 7dbc
000002e0: 8996 543d 0014 d2b9 6316 cabc 1512 9fbd
000002f0: fadc 29bc 450a 7bbd 7e79 2d3d 85cb abbd
00000300: 9765 1d3d 3a38 023d 91cd a8bd 33c6 493c
00000310: 182a 943c 15ec a0bb a9d4 2fbd 97f5 fdbc
00000320: bfb4 98bd fea3 793d 7488 b43c 02e2 7b3c
00000330: 1297 bbbd 7d7f a1bd 9889 983c 7dff 303d
00000340: 100f cfbc 2c8a 70bd d950 8c3c 71bf 853d
00000350: 77bf e33c 1fac c1bc 4643 87bd 665a 76bd
00000360: f8b1 51bd a3ca 8dbd f680 e23c fb56 b23d
00000370: 9c62 f9bc 88ff 43bc e623 a7bc a176 ab3d
00000380: a32a 9ebc eb67 3b3d e39f 74ba 7c0a 813d
00000390: dcf5 83bc d273 593c c67e 423d 1ce7 813c
000003a0: 6f19 413c 960b a2bd 4385 e5bb c9ca 3c39
000003b0: 6aa2 1b3d c547 3bbd 22ef 31bd 4fa4 a3bd
000003c0: e827 0f3d 924e b1bd 4b84 ad3d e0fb 8bbd
000003d0: 9e7d a03d a336 7fbd 11bf a1bb 8362 a9bd
000003e0: 1bae 24bd 774b b0bc 0077 a3ba 55ff c53b
000003f0: 6afb 783d 304c c3bc 647e 28bd e29a 6b3d

network.4.bias f4 [64]
0.0046620704 0.028940592 0.040191684 0.040548116 -0.0036788834 0.045572974 -0.037743557 -0.07918056
0.07232967 0.0085846875 -0.054899495 -0.01837088 0.008031605 0.05341401 0.04855827 0.050139762
-0.08254896 -0.0697631 0.00559725 -0.014049574 0.08358826 -0.061895765 -0.078012064 -0.023420615
-0.06886183 0.03265653 0.019586993 -0.066115335 0.04241653 -0.03867908 -0.07929332 -0.04007187
0.029247785 0.03456055 0.019047447 -0.088308424 -0.007900562 -0.08219571 -0.032028895 -0.061154857
-0.023933874 0.04159448 0.05750548 -0.08794487 0.065616 -0.084761016 -0.013913283 0.04661219
0.055721022 0.01744006 0.023298463 -0.017556965 0.0034406378 0.047224347 -0.009918901 0.027426869
0.030390263 0.07406385 -0.023663906 -0.029110406 0.06358749 0.0058794995 -0.04310189 -0.04974014
00000000: 48c4 983b d214 ed3c 09a0 243d c815 263d
00000010: 6c19 71bb baaa 3a3d fd98 1abd 6b29 a2bd
00000020: 9421 943d caa6 0c3c 4bde 60bd 877e 96bc
00000030: fe96 033c a6c8 5a3d 09e5 463d 5a5f 4d3d
00000040: 6e0f a9bd f5df 8ebd 2369 b73b 2f30 66bc
00000050: 5230 ab3d 6a86 7dbd cac4 9fbd 97dc bfbc
00000060: 6e07 8dbd dbc2 053d e774 a03c 7a67 87bd
00000070: f5bc 2d3d f46d 1ebd 8964 a2bd 6722 24bd
00000080: 0d99 ef3c 5d8f 0d3d 6409 9c3c 0cdb b4bd
00000090: 5c71 01bc 3956 a8bd bb30 03bd 847d 7abd
000000a0: f910 c4bc f95e 2a3d de8a 6b3d 711c b4bd
000000b0: ae61 863d 2f97 adbd 8af4 63bc 6cec 3e3d
000000c0: ba3b 643d 75de 8e3c 6bdc be3c a0d3 8fbc
000000d0: 537c 613b 516e 413d e382 22bc 50ae e03c
000000e0: 00f5 f83c caae 973d cfda c1bc f278 eebc
000000f0: 283a 823d d1a8 c03b 9b8b 30bd 51bc 4bbd

network.6.weight f4 [12, 64]
0.0008745414 -0.111882836 -0.06302719 0.13373634 0.02867248 0.10275053 0.085641414 0.02571837
-0.10259621 -0.08975239 0.11175725 -0.08436974 -0.058451746 -0.017620191 0.06502304 0.07958196
-0.07716024 0.023827242 -0.02985976 0.12106077 -0.12875839 -0.15442768 -0.07097015 -0.13675186
-0.1535298 0.0783772 -0.08566346 0.0070061684 0.104199745 0.06700461 0.011583284 0.04548374
-0.018110787 0.048950706 0.09551415 0.056895733 0.08339401 0.028600037 0.049268443 -0.08680415
-0.011893295 0.029911954 0.0006800443 0.07687024 0.06229144 -0.012472886 -0.04467089 0.065226525
-0.09914493 0.046925794 -0.070075326 -0.11501685 0.0021121823 0.05774496 0.09706707 0.05021329
0.031526722 -0.063487716 0.04427148 -0.022999391 0.017487405 0.10742476 -0.039509296 0.14434138
-0.034189887 -0.10514286 -0.056406103 0.09579016 -0.09955528 0.03939027 -0.08707633 -0.08038134
-0.08124679 -0.11721394 -0.042625725 -0.046745334 -0.03871576 -0.09991091 -0.008261766 -0.13400826
-0.07905987 -0.047096796 0.010753618 -0.06262877 -0.040318288 0.038533885 0.038089994 -0.08583901
-0.058235824 0.03225163 -0.041317273 0.024437293 0.11923641 -0.015133581 -0.073481515 -0.094710045
0.008820474 0.08527553 -0.097981006 -0.053746834 -0.061040744 -0.067941874 -0.06669054 0.11766416
0.07684327 0.008724674 -0.030117303 -0.030032728 0.097718894 0.010770283 -0.0060365056 -0.056087166
0.077468924 -0.09878159 0.13100861 0.040501744 0.023546355 -0.106015 0.09401113 -0.026889794
-0.1054386 0.004826068 -0.1238706 -0.045118853 -0.068981454 -0.035236314 -0.0849405 -0.13221298
-0.07954707 0.037969388 -0.0068646665 0.041171856 -0.03375763 0.02472319 0.08090159 0.07822149
-0.103921816 -0.08403797 -0.05876136 0.013533301 0.06646942 0.025898969 -0.027235797 0.06355637
-0.09190908 0.014764185 0.094935805 0.018823525 0.0198988 0.038589705 -0.031153053 -0.050096728
0.015563671 0.1223141 0.09640619 -0.11595233 0.046133384 -0.0378077 0.02637127 0.10301018
-0.025556153 -0.14071003 0.089581594 -0.0015240461 0.077890635 0.04175958 0.108272515 0.08942136
-0.11226553 0.042550832 -0.042972375 -0.0029117132 0.1108417 -0.05542833 -0.052557543 0.027070299
-0.09821583 -0.11860731 0.0016851178 0.035111625 -0.008322719 0.022953874 0.09452813 -0.08527143
-0.0221785 -0.10855704 -0.09448944 -0.056614548 -0.105638966 0.027725423 0.09948187 0.13893671
0.06767095 -0.06294497 0.08715243 -0.04733904 -0.039126698 -0.12082983 0.092076816 -0.00019073879
-0.12760481 0.054148495 0.036185294 -0.11169037 0.103022136 -0.0200092 0.004415553 0.1270607
-0.015889242 -0.09981088 -0.112072684 0.09201492 -0.09265255 0.014657438 -0.11901108 -0.05903257
-0.004590059 0.053820014 0.112851776 -0.08327994 0.008451514 -0.0015617091 0.06360741 -0.0908767
0.067601696 0.006148822 -0.09148005 0.09103905 0.08690872 -0.020431548 0.12325305 -0.10207534
0.083374746 -0.017463066 0.07639589 -0.09048635 0.07117913 0.08563547 0.018366652 -0.026397862
-0.12983893 -0.017559938 -0.0402898 -0.07677933 0.013033424 0.014408254 -0.021765854 0.032292113
-0.026548248 -0.12468751 -0.083645105 0.08824752 0.044799343 0.03499337 0.041192222 -0.060192123
00000000: 7b41 653a d422 e5bd 6614 81bd 2ef2 083e
00000010: 8ce2 ea3c df6e d23d c464 af3d 55af d23c
00000020: f61d d2bd 1ad0 b7bd fce0 e43d 0bca acbd
00000030: 196b 6fbd 3858 90bc cd2a 853d defb a23d
00000040: 3006 9ebd 5931 c33c 759c f4bc b5ee f73d
00000050: 3dd9 03be 4a22 1ebe cc58 91bd ae08 0cbe
00000060: ea36 1dbe 3a84 a03d 5370 afbd 0094 e53b
00000070: ad66 d53d b739 893d d0c7 3d3c 284d 3a3d
00000080: 135d 94bc 8980 483d ec9c c33d 800b 693d
00000090: 7bca aa3d a04a ea3c b5cd 493d 60c6 b1bd
000000a0: 18dc 42bc ea09 f53c 0045 323a 256e 9d3d
000000b0: 4f25 7f3d 135b 4cbc d3f8 36bd 7c95 853d
000000c0: 7f0c cbbd 4335 403d a783 8fbd f48d ebbd
000000d0: 8a6c 0a3b fb85 6c3d 1acb c63d 73ac 4d3d
000000e0: 2a22 013d d905 82bd 0356 353d 3869 bcbc
000000f0: bf41 8f3c 8301 dc3d 80d4 21bd 3ace 133e
00000100: b20a 0cbd 2455 d7bd 160a 67bd a22d c43d
00000110: a3e3 cbbd b157 213d 1355 b2bd f99e a4bd
00000120: b864 a6bd dd0d f0bd 5098 2ebd 0978 3fbd
00000130: 6b94 1ebd 179e ccbd 5c5c 07bc 7639 09be
00000140: 24ea a1bd 92e8 40bd f12f 303c 8343 80bd
00000150: ca24 25bd b5d5 1d3d 4104 1c3d 5dcc afbd
00000160: b088 6ebd 491a 043d 4d3c 29bd b830 c83c
00000170: 3832 f43d d7f2 77bc 7a7d 96bd 57f7 c1bd
00000180: c083 103c f0a4 ae3d 44aa c8bd a425 5cbd
00000190: dc05 7abd 1c25 8bbd 0d95 88bd e8f9 f03d
000001a0: 0160 9d3d eff1 0e3c 90b8 f6bc 3207 f6bc
000001b0: d820 c83d d775 303c e1cd c5bb a8bb 65bd
000001c0: 07a8 9e3d 014e cabd 1f27 063e 28e5 253d
000001d0: 49e4 c03c 641e d9bd e888 c03d fc47 dcbc
000001e0: 31f0 d7bd fe23 9e3b deaf fdbd 8cce 38bd
000001f0: 2646 8dbd f453 10bd 49f5 adbd d762 07be
00000200: 93e9 a2bd ca85 1b3d fff0 e0bb d2a3 283d
00000210: 7145 0abd 4a88 ca3c bcaf a53d 9732 a03d
00000220: f6d4 d4bd 191c acbd c0af 70bd c7ba 5d3c
00000230: 1f21 883d 132a d43c 9b1d dfbc d829 823d
00000240: d43a bcbd 7be5 713c b46d c23d cb33 9a3c
00000250: cf02 a33c 3d10 1e3d b034 ffbc 3a32 4dbd
00000260: c4fe 7e3c d17f fa3d 9c70 c53d 6a78 edbd
00000270: 5cf6 3c3d 3fdc 1abd 9008 d83c 00f7 d23d
00000280: 235b d1bc 4a16 10be 8e76 b73d 80c2 c7ba
00000290: 2085 9f3d 180c 2b3d fbbd dd3d 8c22 b73d
000002a0: 78eb e5bd c849 2e3d cd03 30bd 71d2 3ebb
000002b0: f900 e33d d108 63bd 9446 57bd 88c2 dd3c
000002c0: 6225 c9bd 64e8 f2bd 2cdf dc3a 35d1 0f3d
000002d0: 035c 08bc c309 bc3c f797 c13d caa2 aebd
000002e0: b0af b5bc 2753 debd ae83 c1bd a8e4 67bd
000002f0: 3e59 d8bd 6d20 e33c 27bd cb3d 6d45 0e3e
00000300: 1197 8a3d 4be9 80bd f97c b23d 95e6 41bd
00000310: 5143 20bd a175 f7bd c592 bc3d 0e01 48b9
00000320: d6aa 02be d0ca 5d3d 0837 143d ecbd e4bd
00000330: 45fd d23d 55ea a3bc 58b0 903b 331c 023e
00000340: 282a 82bc a669 ccbd 5d86 e5bd 5272 bc3d
00000350: 9fc0 bdbd c025 703c 15bc f3bd 23cc 71bd
00000360: 3568 96bb 6072 5c3d d51e e73d ac8e aabd
00000370: 3878 0a3c 43b2 ccba 9a44 823d 901d babd
00000380: c272 8a3d 0f7c c93b e459 bbbd ae72 ba3d
00000390: 33fd b13d 1060 a7bc 186c fc3d e00c d1bd
000003a0: 61c0 aa3d b40e 8fbc 7375 9c3d e850 b9bd
000003b0: 5dc6 913d a661 af3d a975 963c 5440 d8bc
000003c0: 7ff4 04be dcd9 8fbc eb06 25bd 7b3e 9dbd
000003d0: 248a 553c 9910 6c3c 4e4e b2bc bc44 043d
000003e0: b67b d9bc 2a5c ffbd 204e abbd 1ebb b43d
000003f0: 847f 373d 3555 0f3d 2db9 283d 048c 76bd

network.6.bias f4 [12]
0.011212227 0.032641187 0.051335935 0.0818449 0.046953976 -0.026792327 0.072959915 0.070817575
0.07258068 -0.084232904 -0.047912706 -0.090694286
00000000: 7db3 373c c4b2 053d a145 523d 4d9e a73d
00000010: d052 403d 957b dbbc 026c 953d ce08 913d
00000020: 2ea5 943d 4d82 acbd 1d40 44bd edbd b9bd
